 CUDA-version: 10010 (10020), cuDNN: 7.6.4, CUDNN_HALF=1, GPU count: 8  
 CUDNN_HALF=1 
 OpenCV version: 4.9.1
 compute_capability = 750, cudnn_half = 1 
net.optimized_memory = 0 
mini_batch = 1, batch = 1, time_steps = 1, train = 0 
   layer   filters  size/strd(dil)      input                output
   0 conv     32       3 x 3/ 2    416 x 416 x   3 ->  208 x 208 x  32 0.075 BF
   1 conv     32       1 x 1/ 1    208 x 208 x  32 ->  208 x 208 x  32 0.089 BF
   2 conv     32/  32  3 x 3/ 1    208 x 208 x  32 ->  208 x 208 x  32 0.025 BF
   3 conv     16       1 x 1/ 1    208 x 208 x  32 ->  208 x 208 x  16 0.044 BF
   4 conv     96       1 x 1/ 1    208 x 208 x  16 ->  208 x 208 x  96 0.133 BF
   5 conv     96/  96  3 x 3/ 2    208 x 208 x  96 ->  104 x 104 x  96 0.019 BF
   6 conv     24       1 x 1/ 1    104 x 104 x  96 ->  104 x 104 x  24 0.050 BF
   7 conv    144       1 x 1/ 1    104 x 104 x  24 ->  104 x 104 x 144 0.075 BF
   8 conv    144/ 144  3 x 3/ 1    104 x 104 x 144 ->  104 x 104 x 144 0.028 BF
   9 conv     24       1 x 1/ 1    104 x 104 x 144 ->  104 x 104 x  24 0.075 BF
  10 activation: Using default 'linear'
Shortcut Layer: 6,  wt = 0, wn = 0, outputs: 104 x 104 x  24 0.000 BF
  11 conv    144       1 x 1/ 1    104 x 104 x  24 ->  104 x 104 x 144 0.075 BF
  12 conv    144/ 144  3 x 3/ 2    104 x 104 x 144 ->   52 x  52 x 144 0.007 BF
  13 conv     32       1 x 1/ 1     52 x  52 x 144 ->   52 x  52 x  32 0.025 BF
  14 conv    192       1 x 1/ 1     52 x  52 x  32 ->   52 x  52 x 192 0.033 BF
  15 conv    192/ 192  3 x 3/ 1     52 x  52 x 192 ->   52 x  52 x 192 0.009 BF
  16 conv     32       1 x 1/ 1     52 x  52 x 192 ->   52 x  52 x  32 0.033 BF
  17 activation: Using default 'linear'
Shortcut Layer: 13,  wt = 0, wn = 0, outputs:  52 x  52 x  32 0.000 BF
  18 conv    192       1 x 1/ 1     52 x  52 x  32 ->   52 x  52 x 192 0.033 BF
  19 conv    192/ 192  3 x 3/ 1     52 x  52 x 192 ->   52 x  52 x 192 0.009 BF
  20 conv     32       1 x 1/ 1     52 x  52 x 192 ->   52 x  52 x  32 0.033 BF
  21 activation: Using default 'linear'
Shortcut Layer: 17,  wt = 0, wn = 0, outputs:  52 x  52 x  32 0.000 BF
  22 conv    192       1 x 1/ 1     52 x  52 x  32 ->   52 x  52 x 192 0.033 BF
  23 conv    192/ 192  3 x 3/ 1     52 x  52 x 192 ->   52 x  52 x 192 0.009 BF
  24 conv     64       1 x 1/ 1     52 x  52 x 192 ->   52 x  52 x  64 0.066 BF
  25 conv    384       1 x 1/ 1     52 x  52 x  64 ->   52 x  52 x 384 0.133 BF
  26 conv    384/ 384  3 x 3/ 1     52 x  52 x 384 ->   52 x  52 x 384 0.019 BF
  27 conv     64       1 x 1/ 1     52 x  52 x 384 ->   52 x  52 x  64 0.133 BF
  28 activation: Using default 'linear'
Shortcut Layer: 24,  wt = 0, wn = 0, outputs:  52 x  52 x  64 0.000 BF
  29 conv    384       1 x 1/ 1     52 x  52 x  64 ->   52 x  52 x 384 0.133 BF
  30 conv    384/ 384  3 x 3/ 1     52 x  52 x 384 ->   52 x  52 x 384 0.019 BF
  31 conv     64       1 x 1/ 1     52 x  52 x 384 ->   52 x  52 x  64 0.133 BF
  32 activation: Using default 'linear'
Shortcut Layer: 28,  wt = 0, wn = 0, outputs:  52 x  52 x  64 0.000 BF
  33 conv    384       1 x 1/ 1     52 x  52 x  64 ->   52 x  52 x 384 0.133 BF
  34 conv    384/ 384  3 x 3/ 1     52 x  52 x 384 ->   52 x  52 x 384 0.019 BF
  35 conv     64       1 x 1/ 1     52 x  52 x 384 ->   52 x  52 x  64 0.133 BF
  36 activation: Using default 'linear'
Shortcut Layer: 32,  wt = 0, wn = 0, outputs:  52 x  52 x  64 0.000 BF
  37 conv    384       1 x 1/ 1     52 x  52 x  64 ->   52 x  52 x 384 0.133 BF
  38 conv    384/ 384  3 x 3/ 2     52 x  52 x 384 ->   26 x  26 x 384 0.005 BF
  39 conv     96       1 x 1/ 1     26 x  26 x 384 ->   26 x  26 x  96 0.050 BF
  40 conv    576       1 x 1/ 1     26 x  26 x  96 ->   26 x  26 x 576 0.075 BF
  41 conv    576/ 576  3 x 3/ 1     26 x  26 x 576 ->   26 x  26 x 576 0.007 BF
  42 conv     96       1 x 1/ 1     26 x  26 x 576 ->   26 x  26 x  96 0.075 BF
  43 activation: Using default 'linear'
Shortcut Layer: 39,  wt = 0, wn = 0, outputs:  26 x  26 x  96 0.000 BF
  44 conv    576       1 x 1/ 1     26 x  26 x  96 ->   26 x  26 x 576 0.075 BF
  45 conv    576/ 576  3 x 3/ 1     26 x  26 x 576 ->   26 x  26 x 576 0.007 BF
  46 conv     96       1 x 1/ 1     26 x  26 x 576 ->   26 x  26 x  96 0.075 BF
  47 activation: Using default 'linear'
Shortcut Layer: 43,  wt = 0, wn = 0, outputs:  26 x  26 x  96 0.000 BF
  48 conv    576       1 x 1/ 1     26 x  26 x  96 ->   26 x  26 x 576 0.075 BF
  49 conv    576/ 576  3 x 3/ 2     26 x  26 x 576 ->   13 x  13 x 576 0.002 BF
  50 conv    160       1 x 1/ 1     13 x  13 x 576 ->   13 x  13 x 160 0.031 BF
  51 conv    960       1 x 1/ 1     13 x  13 x 160 ->   13 x  13 x 960 0.052 BF
  52 conv    960/ 960  3 x 3/ 1     13 x  13 x 960 ->   13 x  13 x 960 0.003 BF
  53 conv    160       1 x 1/ 1     13 x  13 x 960 ->   13 x  13 x 160 0.052 BF
  54 activation: Using default 'linear'
Shortcut Layer: 50,  wt = 0, wn = 0, outputs:  13 x  13 x 160 0.000 BF
  55 conv    960       1 x 1/ 1     13 x  13 x 160 ->   13 x  13 x 960 0.052 BF
  56 conv    960/ 960  3 x 3/ 1     13 x  13 x 960 ->   13 x  13 x 960 0.003 BF
  57 conv    160       1 x 1/ 1     13 x  13 x 960 ->   13 x  13 x 160 0.052 BF
  58 activation: Using default 'linear'
Shortcut Layer: 54,  wt = 0, wn = 0, outputs:  13 x  13 x 160 0.000 BF
  59 max                5x 5/ 1     13 x  13 x 160 ->   13 x  13 x 160 0.001 BF
  60 route  58 		                           ->   13 x  13 x 160 
  61 max                9x 9/ 1     13 x  13 x 160 ->   13 x  13 x 160 0.002 BF
  62 route  58 		                           ->   13 x  13 x 160 
  63 max               13x13/ 1     13 x  13 x 160 ->   13 x  13 x 160 0.005 BF
  64 route  63 61 59 58 	                   ->   13 x  13 x 640 
  65 conv    160       1 x 1/ 1     13 x  13 x 640 ->   13 x  13 x 160 0.035 BF
  66 conv    960       1 x 1/ 1     13 x  13 x 160 ->   13 x  13 x 960 0.052 BF
  67 conv    960/ 960  3 x 3/ 1     13 x  13 x 960 ->   13 x  13 x 960 0.003 BF
  68 conv    160       1 x 1/ 1     13 x  13 x 960 ->   13 x  13 x 160 0.052 BF
  69 activation: Using default 'linear'
Shortcut Layer: 65,  wt = 0, wn = 0, outputs:  13 x  13 x 160 0.000 BF
  70 conv    960       1 x 1/ 1     13 x  13 x 160 ->   13 x  13 x 960 0.052 BF
  71 conv    960/ 960  3 x 3/ 1     13 x  13 x 960 ->   13 x  13 x 960 0.003 BF
  72 conv    320       1 x 1/ 1     13 x  13 x 960 ->   13 x  13 x 320 0.104 BF
  73 conv   1280       1 x 1/ 1     13 x  13 x 320 ->   13 x  13 x1280 0.138 BF
  74 conv    255       1 x 1/ 1     13 x  13 x1280 ->   13 x  13 x 255 0.110 BF
  75 yolo
[yolo] params: iou loss: ciou (4), iou_norm: 0.07, cls_norm: 1.00, scale_x_y: 1.05
nms_kind: greedynms (1), beta = 0.600000 
  76 route  70 		                           ->   13 x  13 x 960 
  77 conv    256       1 x 1/ 1     13 x  13 x 960 ->   13 x  13 x 256 0.083 BF
  78 upsample                 2x    13 x  13 x 256 ->   26 x  26 x 256
  79 route  78 48 	                           ->   26 x  26 x 832 
  80 conv     96       1 x 1/ 1     26 x  26 x 832 ->   26 x  26 x  96 0.108 BF
  81 conv    576       1 x 1/ 1     26 x  26 x  96 ->   26 x  26 x 576 0.075 BF
  82 conv    576/ 576  3 x 3/ 1     26 x  26 x 576 ->   26 x  26 x 576 0.007 BF
  83 conv     96       1 x 1/ 1     26 x  26 x 576 ->   26 x  26 x  96 0.075 BF
  84 activation: Using default 'linear'
Shortcut Layer: 80,  wt = 0, wn = 0, outputs:  26 x  26 x  96 0.000 BF
  85 conv    576       1 x 1/ 1     26 x  26 x  96 ->   26 x  26 x 576 0.075 BF
  86 conv    576/ 576  3 x 3/ 1     26 x  26 x 576 ->   26 x  26 x 576 0.007 BF
  87 conv     96       1 x 1/ 1     26 x  26 x 576 ->   26 x  26 x  96 0.075 BF
  88 activation: Using default 'linear'
Shortcut Layer: 84,  wt = 0, wn = 0, outputs:  26 x  26 x  96 0.000 BF
  89 conv    480       1 x 1/ 1     26 x  26 x  96 ->   26 x  26 x 480 0.062 BF
  90 conv    480/ 480  3 x 3/ 1     26 x  26 x 480 ->   26 x  26 x 480 0.006 BF
  91 conv    160       1 x 1/ 1     26 x  26 x 480 ->   26 x  26 x 160 0.104 BF
  92 conv    640       1 x 1/ 1     26 x  26 x 160 ->   26 x  26 x 640 0.138 BF
  93 conv    255       1 x 1/ 1     26 x  26 x 640 ->   26 x  26 x 255 0.221 BF
  94 yolo
[yolo] params: iou loss: ciou (4), iou_norm: 0.07, cls_norm: 1.00, scale_x_y: 1.10
nms_kind: greedynms (1), beta = 0.600000 
  95 route  89 		                           ->   26 x  26 x 480 
  96 conv    128       1 x 1/ 1     26 x  26 x 480 ->   26 x  26 x 128 0.083 BF
  97 upsample                 2x    26 x  26 x 128 ->   52 x  52 x 128
  98 route  97 37 	                           ->   52 x  52 x 512 
  99 conv     64       1 x 1/ 1     52 x  52 x 512 ->   52 x  52 x  64 0.177 BF
 100 conv    384       1 x 1/ 1     52 x  52 x  64 ->   52 x  52 x 384 0.133 BF
 101 conv    384/ 384  3 x 3/ 1     52 x  52 x 384 ->   52 x  52 x 384 0.019 BF
 102 conv     64       1 x 1/ 1     52 x  52 x 384 ->   52 x  52 x  64 0.133 BF
 103 activation: Using default 'linear'
Shortcut Layer: 99,  wt = 0, wn = 0, outputs:  52 x  52 x  64 0.000 BF
 104 conv     64       1 x 1/ 1     52 x  52 x  64 ->   52 x  52 x  64 0.022 BF
 105 conv    384       1 x 1/ 1     52 x  52 x  64 ->   52 x  52 x 384 0.133 BF
 106 conv    384/ 384  3 x 3/ 1     52 x  52 x 384 ->   52 x  52 x 384 0.019 BF
 107 conv     64       1 x 1/ 1     52 x  52 x 384 ->   52 x  52 x  64 0.133 BF
 108 activation: Using default 'linear'
Shortcut Layer: 104,  wt = 0, wn = 0, outputs:  52 x  52 x  64 0.000 BF
 109 conv     64       1 x 1/ 1     52 x  52 x  64 ->   52 x  52 x  64 0.022 BF
 110 conv    384       1 x 1/ 1     52 x  52 x  64 ->   52 x  52 x 384 0.133 BF
 111 conv    384/ 384  3 x 3/ 1     52 x  52 x 384 ->   52 x  52 x 384 0.019 BF
 112 conv     64       1 x 1/ 1     52 x  52 x 384 ->   52 x  52 x  64 0.133 BF
 113 activation: Using default 'linear'
Shortcut Layer: 109,  wt = 0, wn = 0, outputs:  52 x  52 x  64 0.000 BF
 114 conv    240       1 x 1/ 1     52 x  52 x  64 ->   52 x  52 x 240 0.083 BF
 115 conv    240/ 240  3 x 3/ 1     52 x  52 x 240 ->   52 x  52 x 240 0.012 BF
 116 conv     80       1 x 1/ 1     52 x  52 x 240 ->   52 x  52 x  80 0.104 BF
 117 conv    320       1 x 1/ 1     52 x  52 x  80 ->   52 x  52 x 320 0.138 BF
 118 conv    255       1 x 1/ 1     52 x  52 x 320 ->   52 x  52 x 255 0.441 BF
 119 yolo
[yolo] params: iou loss: ciou (4), iou_norm: 0.07, cls_norm: 1.00, scale_x_y: 1.20
nms_kind: greedynms (1), beta = 0.600000 
Total BFLOPS 6.184 
avg_outputs = 422440 
 Allocate additional workspace_size = 9.95 MB 
Loading weights from yolov3-spp-mobilenetv2-coco_best.weights...
 seen 64, trained: 8711 K-images (136 Kilo-batches_64) 
Done! Loaded 120 layers from weights-file 
…
