 OpenCV version: 4.9.1
4,5,6,7
 0 : compute_capability = 750, cudnn_half = 1, GPU: GeForce RTX 2080 Ti 
net.optimized_memory = 0 
mini_batch = 1, batch = 2, time_steps = 1, train = 0 
   layer   filters  size/strd(dil)      input                output
   0 conv     32       3 x 3/ 2    320 x 320 x   3 ->  160 x 160 x  32 0.044 BF
   1 conv     32       1 x 1/ 1    160 x 160 x  32 ->  160 x 160 x  32 0.052 BF
   2 conv     32/  32  3 x 3/ 1    160 x 160 x  32 ->  160 x 160 x  32 0.015 BF
   3 conv     16       1 x 1/ 1    160 x 160 x  32 ->  160 x 160 x  16 0.026 BF
   4 conv     96       1 x 1/ 1    160 x 160 x  16 ->  160 x 160 x  96 0.079 BF
   5 conv     96/  96  3 x 3/ 2    160 x 160 x  96 ->   80 x  80 x  96 0.011 BF
   6 conv     24       1 x 1/ 1     80 x  80 x  96 ->   80 x  80 x  24 0.029 BF
   7 conv    144       1 x 1/ 1     80 x  80 x  24 ->   80 x  80 x 144 0.044 BF
   8 conv    144/ 144  3 x 3/ 1     80 x  80 x 144 ->   80 x  80 x 144 0.017 BF
   9 conv     24       1 x 1/ 1     80 x  80 x 144 ->   80 x  80 x  24 0.044 BF
  10 Shortcut Layer: 6,  wt = 0, wn = 0, outputs:  80 x  80 x  24 0.000 BF
  11 conv    144       1 x 1/ 1     80 x  80 x  24 ->   80 x  80 x 144 0.044 BF
  12 conv    144/ 144  3 x 3/ 2     80 x  80 x 144 ->   40 x  40 x 144 0.004 BF
  13 conv     32       1 x 1/ 1     40 x  40 x 144 ->   40 x  40 x  32 0.015 BF
  14 conv    192       1 x 1/ 1     40 x  40 x  32 ->   40 x  40 x 192 0.020 BF
  15 conv    192/ 192  3 x 3/ 1     40 x  40 x 192 ->   40 x  40 x 192 0.006 BF
  16 conv     32       1 x 1/ 1     40 x  40 x 192 ->   40 x  40 x  32 0.020 BF
  17 Shortcut Layer: 13,  wt = 0, wn = 0, outputs:  40 x  40 x  32 0.000 BF
  18 conv    192       1 x 1/ 1     40 x  40 x  32 ->   40 x  40 x 192 0.020 BF
  19 conv    192/ 192  3 x 3/ 1     40 x  40 x 192 ->   40 x  40 x 192 0.006 BF
  20 conv     32       1 x 1/ 1     40 x  40 x 192 ->   40 x  40 x  32 0.020 BF
  21 Shortcut Layer: 17,  wt = 0, wn = 0, outputs:  40 x  40 x  32 0.000 BF
  22 conv    192       1 x 1/ 1     40 x  40 x  32 ->   40 x  40 x 192 0.020 BF
  23 conv    192/ 192  3 x 3/ 1     40 x  40 x 192 ->   40 x  40 x 192 0.006 BF
  24 conv     64       1 x 1/ 1     40 x  40 x 192 ->   40 x  40 x  64 0.039 BF
  25 conv    384       1 x 1/ 1     40 x  40 x  64 ->   40 x  40 x 384 0.079 BF
  26 conv    384/ 384  3 x 3/ 1     40 x  40 x 384 ->   40 x  40 x 384 0.011 BF
  27 conv     64       1 x 1/ 1     40 x  40 x 384 ->   40 x  40 x  64 0.079 BF
  28 Shortcut Layer: 24,  wt = 0, wn = 0, outputs:  40 x  40 x  64 0.000 BF
  29 conv    384       1 x 1/ 1     40 x  40 x  64 ->   40 x  40 x 384 0.079 BF
  30 conv    384/ 384  3 x 3/ 1     40 x  40 x 384 ->   40 x  40 x 384 0.011 BF
  31 conv     64       1 x 1/ 1     40 x  40 x 384 ->   40 x  40 x  64 0.079 BF
  32 Shortcut Layer: 28,  wt = 0, wn = 0, outputs:  40 x  40 x  64 0.000 BF
  33 conv    384       1 x 1/ 1     40 x  40 x  64 ->   40 x  40 x 384 0.079 BF
  34 conv    384/ 384  3 x 3/ 1     40 x  40 x 384 ->   40 x  40 x 384 0.011 BF
  35 conv     64       1 x 1/ 1     40 x  40 x 384 ->   40 x  40 x  64 0.079 BF
  36 Shortcut Layer: 32,  wt = 0, wn = 0, outputs:  40 x  40 x  64 0.000 BF
  37 conv    384       1 x 1/ 1     40 x  40 x  64 ->   40 x  40 x 384 0.079 BF
  38 conv    384/ 384  3 x 3/ 2     40 x  40 x 384 ->   20 x  20 x 384 0.003 BF
  39 conv     96       1 x 1/ 1     20 x  20 x 384 ->   20 x  20 x  96 0.029 BF
  40 conv    576       1 x 1/ 1     20 x  20 x  96 ->   20 x  20 x 576 0.044 BF
  41 conv    576/ 576  3 x 3/ 1     20 x  20 x 576 ->   20 x  20 x 576 0.004 BF
  42 conv     96       1 x 1/ 1     20 x  20 x 576 ->   20 x  20 x  96 0.044 BF
  43 Shortcut Layer: 39,  wt = 0, wn = 0, outputs:  20 x  20 x  96 0.000 BF
  44 conv    576       1 x 1/ 1     20 x  20 x  96 ->   20 x  20 x 576 0.044 BF
  45 conv    576/ 576  3 x 3/ 1     20 x  20 x 576 ->   20 x  20 x 576 0.004 BF
  46 conv     96       1 x 1/ 1     20 x  20 x 576 ->   20 x  20 x  96 0.044 BF
  47 Shortcut Layer: 43,  wt = 0, wn = 0, outputs:  20 x  20 x  96 0.000 BF
  48 conv    576       1 x 1/ 1     20 x  20 x  96 ->   20 x  20 x 576 0.044 BF
  49 conv    576/ 576  3 x 3/ 2     20 x  20 x 576 ->   10 x  10 x 576 0.001 BF
  50 conv    160       1 x 1/ 1     10 x  10 x 576 ->   10 x  10 x 160 0.018 BF
  51 conv    960       1 x 1/ 1     10 x  10 x 160 ->   10 x  10 x 960 0.031 BF
  52 conv    960/ 960  3 x 3/ 1     10 x  10 x 960 ->   10 x  10 x 960 0.002 BF
  53 conv    160       1 x 1/ 1     10 x  10 x 960 ->   10 x  10 x 160 0.031 BF
  54 Shortcut Layer: 50,  wt = 0, wn = 0, outputs:  10 x  10 x 160 0.000 BF
  55 conv    960       1 x 1/ 1     10 x  10 x 160 ->   10 x  10 x 960 0.031 BF
  56 conv    960/ 960  3 x 3/ 1     10 x  10 x 960 ->   10 x  10 x 960 0.002 BF
  57 conv    160       1 x 1/ 1     10 x  10 x 960 ->   10 x  10 x 160 0.031 BF
  58 Shortcut Layer: 54,  wt = 0, wn = 0, outputs:  10 x  10 x 160 0.000 BF
  59 max                3x 3/ 1     10 x  10 x 160 ->   10 x  10 x 160 0.000 BF
  60 route  58 		                           ->   10 x  10 x 160 
  61 max                5x 5/ 1     10 x  10 x 160 ->   10 x  10 x 160 0.000 BF
  62 route  58 		                           ->   10 x  10 x 160 
  63 max                9x 9/ 1     10 x  10 x 160 ->   10 x  10 x 160 0.001 BF
  64 route  63 61 59 58 	                   ->   10 x  10 x 640 
  65 conv    288       1 x 1/ 1     10 x  10 x 640 ->   10 x  10 x 288 0.037 BF
  66 conv    288/ 288  3 x 3/ 1     10 x  10 x 288 ->   10 x  10 x 288 0.001 BF
  67 conv     96       1 x 1/ 1     10 x  10 x 288 ->   10 x  10 x  96 0.006 BF
  68 conv    384       1 x 1/ 1     10 x  10 x  96 ->   10 x  10 x 384 0.007 BF
  69 conv     75       1 x 1/ 1     10 x  10 x 384 ->   10 x  10 x  75 0.006 BF
  70 yolo
[yolo] params: iou loss: ciou (4), iou_norm: 0.07, cls_norm: 1.00, scale_x_y: 1.00
nms_kind: greedynms (1), beta = 0.600000 
  71 route  65 		                           ->   10 x  10 x 288 
  72 upsample                 2x    10 x  10 x 288 ->   20 x  20 x 288
  73 route  72 48 	                           ->   20 x  20 x 864 
  74 conv     80       1 x 1/ 1     20 x  20 x 864 ->   20 x  20 x  80 0.055 BF
  75 conv    288       1 x 1/ 1     20 x  20 x  80 ->   20 x  20 x 288 0.018 BF
  76 conv    288/ 288  3 x 3/ 1     20 x  20 x 288 ->   20 x  20 x 288 0.002 BF
  77 conv    192       1 x 1/ 1     20 x  20 x 288 ->   20 x  20 x 192 0.044 BF
  78 conv    288       1 x 1/ 1     20 x  20 x 192 ->   20 x  20 x 288 0.044 BF
  79 conv     75       1 x 1/ 1     20 x  20 x 288 ->   20 x  20 x  75 0.017 BF
  80 yolo
[yolo] params: iou loss: ciou (4), iou_norm: 0.07, cls_norm: 1.00, scale_x_y: 1.00
nms_kind: greedynms (1), beta = 0.600000 
Total BFLOPS 1.811 
avg_outputs = 244441 
 Allocate additional workspace_size = 5.89 MB 
Loading weights from MobileNetV2-YOLOv3-Lite-voc.weights...
 seen 64, trained: 1217 K-images (19 Kilo-batches_64) 
Done! Loaded 81 layers from weights-file 
…
